…
":[]},{"cell_type":"markdown","source":["### [Step6] Create Model instance"],"metadata":{"id":"svcCPRGxF5ls"}},{"cell_type":"code","source":["model = VGG('VGG11').to(DEVICE)\n","print(model)"],"metadata":{"id":"FDgZ56RzGAN3","colab":{"base_uri":"https://localhost:8080/"},"executionInfo":{"status":"ok","timestamp":1676519943838,"user_tz":-540,"elapsed":7,"user":{"displayName":"ter re","userId":"13421344728699485304"}},"outputId":"282263b0-b3a9-4bda-cffb-72bcc01ad440"},"execution_count":null,"outputs":[{"output_type":"stream","name":"stdout","text":["VGG(\n","  (features): Sequential(\n","    (0): Conv2d(3, 64, kernel_size=(3, 3), stride=(1, 1), padding=(1, 1))\n","    (1): BatchNorm2d(64, eps=1e-05, momentum=0.1, affine=True, track_running_stats=True)\n","    (2): ReLU(inplace=True)\n","    (3): MaxPool2d(kernel_size=2, stride=2, padding=0, dilation=1, ceil_mode=False)\n","    (4): Conv2d(64, 128, kernel_size=(3, 3), stride=(1, 1), padding=(1, 1))\n","    (5): BatchNorm2d(128, eps=1e-05, momentum=0.1, affine=True, track_running_stats=True)\n","    (6): ReLU(inplace=True)\n","    (7): MaxPool2d(kernel_size=2, stride=2, padding=0, dilation=1, ceil_mode=False)\n","    (8): Conv2d(128, 256, kernel_size=(3, 3), stride=(1, 1), padding=(1, 1))\n","    (9): BatchNorm2d(256, eps=1e-05, momentum=0.1, affine=True, track_running_stats=True)\n","    (10): ReLU(inplace=True)\n","    (11): Conv2d(256, 256, kernel_size=(3, 3), stride=(1, 1), padding=(1, 1))\n","    (12): BatchNorm2d(256, eps=1e-05, momentum=0.1, affine=True, track_running_stats=True)\n","    (13): ReLU(inplace=True)\n","    (14): MaxPool2d(kernel_size=2, stride=2, padding=0, dilation=1, ceil_mode=False)\n","    (15): Conv2d(256, 512, kernel_size=(3, 3), stride=(1, 1), padding=(1, 1))\n","    (16): BatchNorm2d(512, eps=1e-05, momentum=0.1, affine=True, track_running_stats=True)\n","    (17): ReLU(inplace=True)\n","    (18): Conv2d(512, 512, kernel_size=(3, 3), stride=(1, 1), padding=(1, 1))\n","    (19): BatchNorm2d(512, eps=1e-05, momentum=0.1, affine=True, track_running_stats=True)\n","    (20): ReLU(inplace=True)\n","    (21): MaxPool2d(kernel_size=2, stride=2, padding=0, dilation=1, ceil_mode=False)\n","    (22): Conv2d(512, 512, kernel_size=(3, 3), stride=(1, 1), padding=(1, 1))\n","    (23): BatchNorm2d(512, eps=1e-05, momentum=0.1, affine=True, track_running_stats=True)\n","    (24): ReLU(inplace=True)\n","    (25): Conv2d(512, 512, kernel_size=(3, 3), stride=(1, 1), padding=(1, 1))\n","    (26): BatchNorm2d(512, eps=1e-05, momentum=0.1, affine=True, track_running_stats=True)\n","    (27): ReLU(inplace=True)\n","    (28): MaxPool2d(kernel_size=2, stride=2, padding=0, dilation=1, ceil_mode=False)\n","  )\n","  (classifier): Sequential(\n","    (0): Linear(in_features=512, out_features=360, bias=True)\n","    (1): ReLU(inplace=True)\n","    (2): Dropout(p=0.5, inplace=False)\n","    (3): Linear(in_features=360, out_features=100, bias=True)\n","    (4): ReLU(inplace=True)\n","    (5): Dropout(p=0.5, inplace=False)\n","    (6): Linear(in_features=100, out_features=10, bias=True)\n","  )\n",")\n"]}]},{"cell_type":"markdown","source":["### [Step7] Model compile"],"metadata":{"id":"gPwh-CXVGtBp"}},{"cell_type":"code","source":["loss = nn.CrossEntropyLoss()\n","optimizer = torch.optim.SGD(model.parameters(), lr = LEARNING_RATE, momentum=0.9)"],"metadata":{"id":"RwM8c2TdGseO"},"execution_count":null,"outputs":[]},{"cell_type":"markd
…
